net_params.pkl (torch_old, 922 bytes, 3 tensors)

0.weight f4 [10, 1]
000000 50 d6 fd be a8 64 98 bf a0 65 f8 3e 27 d9 36 3b
       -0.4957757 -1.1905718 0.48515034 0.002790043
000010 db 59 04 3d 5c 7c 9f bd 03 d6 dc 3f 28 b5 cf 3d
       0.032312255 -0.077873915 1.7252811 0.10141975
000020 39 b9 b0 3d 60 84 b1 bf
       0.086290784 -1.3868523

0.bias f4 [10]
000000 42 73 42 bf 74 37 53 bf ee 0a 57 bf 55 df 65 3f
       -0.7595712 -0.8250649 -0.8400105 0.897939
000010 e5 4f 0e 3f ea e6 a0 3e 5d 22 13 bf f4 1b 1a 3f
       0.5559066 0.31426173 -0.5747431 0.60198903
000020 e1 7a 6b be a1 92 be be
       -0.22996093 -0.37221244

2.weight f4 [1, 10]
000000 8f a4 84 3e 6b db 26 3f 18 90 ba bd 4b 55 4c 3d
       0.25906798 0.65178555 -0.09109515 0.04988603
000010 ca d5 a7 bb 71 8a 7a be a8 49 45 3f cd 3e 7b be
       -0.005121921 -0.24466874 0.77065516 -0.24535675
000020 a1 49 ef bd d5 a8 30 3f
       -0.116839655 0.6900762
